chatbot/chatbot/data.pth (torch, 97514 bytes, 6 tensors)

L1.weight f4 [8, 2005]
00000000: 8857 3f3d d6b0 c0bd 7a86 19be c037 ce3d
00000010: 76fd e9bd b456 94b9 c362 23bd f15f e13d
00000020: 3134 9b3d d13a 843e f160 8b3d efb7 74be
00000030: 0fbd 8bbe fe13 c5be 0d2b 9b3d 2e07 733e
00000040: 9d58 7abe d98b 8bbe 9af1 893d 62c8 8ebe
00000050: b663 943d af72 40be fdb5 5abe 6635 04be
00000060: eaa1 20bd 4faf 9bbc 32c5 223e 58a0 d03e
00000070: 13a7 843e 7626 cb3d c9a6 8f3e 5c11 27bd
00000080: df33 643d a914 273d 2f3b 6c3d aee5 9a3c
00000090: af8a c2bd 86ea 1cbe 257d 98bc 7cfc c33d
000000a0: f83e 0b3d c816 d2be ba5d 893d 7bfd 5fbd
000000b0: 9818 e73e e4cc d63d fe43 513e fa5f 2fbe
000000c0: b55b 3bbd ce50 963d e3e9 c23c 3e4a 083f
000000d0: 15e9 47be 0221 673d bcbf 883d 05e3 223d
000000e0: 9d83 003d 5e0e 33be 0314 ddbc b810 b4bd
000000f0: 5014 fd3d c49a 0e3d 4b26 823d 99e5 61bd
00000100: c586 c9bc f9da 58be 8188 803d 0a94 3dbe
00000110: bfb8 0c3d 3f09 40be 7edb 613d aea5 8d3e
00000120: 65a6 913d dd7d 71be f1db 9e3d 8a4c 413d
00000130: 5d65 30bd dd63 14be 6333 773d 0b86 e93d
00000140: 3179 b8bd dc94 31be a0e5 cbbb b24f 4c3d
00000150: 7856 8d3e 050f 6e3d 5cea 85bc d794 5c3e
00000160: 609b b5bd 6d74 773d 803e 333c 4099 8e3d
00000170: fbe2 07bd 8a03 343e 7e14 c53e bb9f 883e
00000180: e26c 7b3d abc7 dcbc 3f94 4e3e 9f5b b7be
00000190: a895 153e 655e f63e 562b 673d a67a 133f
000001a0: a191 a83c 13e6 333d b878 0bbd 6f50 ac3e
000001b0: 10d1 8d3e 7685 943d d443 923e a13e f73e
000001c0: 6541 443d 125b 133f 6fde fb3c ef48 bf3e
000001d0: c309 31be d44e 8f3e 2aa5 853e edc5 d13e
000001e0: 418e 3fbe d6b7 c03d a74f ac3b 75c8 80bd
000001f0: d9d5 eb3e e24f 233d 4740 0a3f e85e 423e
00000200: 5e5b 3b3e d5e8 f63e 44c3 8c3d 504a 173f
00000210: ac96 b53d 92fc 4fbe 80ff fc3d 2d8e f83e
00000220: cf79 7a3d 127c 0e3f 87c7 943e 24e5 ec3e
00000230: ebbd 043e e9e2 73be 2d14 be3e cf95 843d
00000240: 9a5b e1bc d4cd 47bc d7c3 023e f374 353e
00000250: ceff 003d 6281 ef3d a7bd fa3e 6c64 6d3d
00000260: 2e8d 103f 25a1 59be 1706 703e 0519 b53e
00000270: 0a80 aa3d cbb4 8b3e cb98 623d 9af3 923e
00000280: 6ab1 8c3e 8c5d 203d 4e5d ff3e 7507 263d
00000290: 26ab 123f d908 053d 726c 8e3e 590c 6e3e
000002a0: 1a76 c93d 4685 c5b9 af9e 6dbd 059c e53e
000002b0: 878b b43e 2da9 373e 7ff6 023e 5fb2 f23e
000002c0: b214 933d 6201 143f 6a66 033e ad42 813d
000002d0: 0dd2 8b3e 508d ca3d c844 61bc 3961 633e
000002e0: 704a 1f3c f41d 013e 1dbd f33e 90ba 5e3d
000002f0: 4978 103f 09bf 48bd 1490 8d3e 49bb bb3d
00000300: 3b03 b3bc 7744 5d3e 3223 c8bd 57bd a93d
00000310: 0fb6 e53c 621f 333d cd0f 86be 8b13 bfbe
00000320: fd57 603e 223e a2be 5046 cb3d 6847 113d
00000330: 1aad 9fbd e929 693d 29e7 4abe 84b4 e3bd
00000340: 2445 603d 09be 73be 556c 613e ecc1 abbe
00000350: 4b73 c53d 8774 813d 2436 8d3e 2206 6d3d
00000360: 46ce 20bc b372 623e d347 9abd 0b1c 65bd
00000370: 38ac 653e 20cd 953d 5f95 83be 6d40 613e
00000380: 4c78 9fbe 4815 a93d ab27 b5bc 06aa 4d3c
00000390: 2906 f73d e238 3d3e c4e3 0c3e 0583 4ebe
000003a0: e0bc 7fbd 4861 b13c 6eec 403d 06b9 db3c
000003b0: 26d8 cc3d 40e0 9fbe d7d6 a03d 84c9 7abe
000003c0: b00e a8be 3a6c 94be c3d9 21be a217 d6be
000003d0: 7aae ef3d 340f edbd 52aa 553d 180a 733e
000003e0: 9a14 cc3d 78de 6b3d e94a 8b3e a0c6 c8bd
000003f0: 16a9 943d 6dd9 f93e 0c1e 903c 96f5 e13d
0.046714336 -0.09408729 -0.14992705 0.10069227 -0.11425297 -0.0002829336 -0.03988911 0.110046275
0.07578314 0.25826123 0.068055995 -0.2389829 -0.27292678 -0.38491815 0.07576571 0.23733208
-0.24447866 -0.27255133 0.06735535 -0.27887255 0.07245581 -0.18793748 -0.21358486 -0.12910995
-0.039216913 -0.019004492 0.15895537 0.40747333 0.25908718 0.09919445 0.28056934 -0.04078804
0.05571353 0.040791187 0.05767363 0.018908348 -0.09499108 -0.15323839 -0.018614361 0.09569642
0.0339956 -0.41033006 0.0670733 -0.054685097 0.4513595 0.104882985 0.20436093 -0.17126456
-0.045741756 0.07339631 0.023793167 0.53238285 -0.19522507 0.056427963 0.066771954 0.039767284
0.031375516 -0.1748595 -0.026987081 -0.08792251 0.1235739 0.034815565 0.0635496 -0.055150602
-0.024600396 -0.21177281 0.06276036 -0.18513504 0.034355875 -0.18753527 0.055140965 0.27665466
0.07111815 -0.2358317 0.07756794 0.047192134 -0.043065418 -0.1449122 0.06035174 0.1140252
-0.090074904 -0.17341942 -0.006222442 0.04988069 0.27605033 0.058119792 -0.016347103 0.21541153
-0.08867526 0.060413767 0.010940194 0.06962824 -0.03317545 0.17579475 0.38492197 0.26684365
0.061383136 -0.026950678 0.20173739 -0.3581209 0.1460787 0.48118892 0.056437813 0.5760902
0.020577254 0.043920588 -0.034050673 0.33655116 0.27698565 0.07252018 0.28567374 0.4828997
0.047913928 0.5756084 0.030745713 0.3736033 -0.1728888 0.2798983 0.26102573 0.40971318
-0.1870661 0.09410064 0.0052585187 -0.06288234 0.4606159 0.039871104 0.5400433 0.18981516
0.18296573 0.48224512 0.068731815 0.59097767 0.08866629 -0.20311192 0.1235342 0.48545972
0.061151322 0.55658066 0.29058477 0.4626857 0.12963073 -0.23817028 0.37124768 0.06473886
-0.0275095 -0.012195069 0.1277002 0.17720394 0.031493954 0.116946 0.48972818 0.057957098
0.56465423 -0.21252878 0.23439823 0.3537065 0.08325203 0.27286372 0.055321496 0.28701478
0.27479106 0.039151713 0.49875873 0.040534455 0.572924 0.03247914 0.27817112 0.23246898
0.09836979 -0.00037674065 -0.05801266 0.44845596 0.352627 0.17935629 0.12789343 0.4740171
0.07181682 0.5781461 0.12832037 0.063115455 0.27308694 0.098902345 -0.013749309 0.22205056
0.009722337 0.12609082 0.4760522 0.05437714 0.5643354 -0.04901031 0.27648985 0.09166581
-0.021852126 0.21608149 -0.09772338 0.08288067 0.028040914 0.0437311 -0.2618393 -0.37319598
0.21908565 -0.3168803 0.099255204 0.03546849 -0.077966884 0.056924734 -0.19814743 -0.11118415
0.054753438 -0.23802961 0.22013982 -0.33546388 0.09641131 0.06321054 0.2758037 0.057867177
-0.009814804 0.22114067 -0.07533231 -0.055934947 0.22428977 0.07314515 -0.256999 0.21997233
-0.31146467 0.08256012 -0.022113642 0.012552744 0.12061722 0.1847873 0.1375876 -0.20167167
-0.062435985 0.021652833 0.047100477 0.026821624 0.100021645 -0.31225777 0.078534774 -0.24490935
-0.32823706 -0.2898882 -0.15805726 -0.41814905 0.11703201 -0.115751654 0.052164383 0.23734319
0.09964867 0.05758521 0.2720559 -0.0980351 0.07258813 0.48798695 0.017592452 0.1103317

L1.bias f4 [8]
00000000: ebb4 003f 0aad 073f f3f2 1b40 db8d a73f
00000010: 6399 9d3f 623a 793f b663 1c3e 5cf3 e23e
0.5027606 0.5299841 2.4367034 1.3090166 1.2312435 0.9735471 0.15272412 0.44326293

L2.weight f4 [8, 8]
00000000: 5698 53be 1495 4abe e812 533e f5ae ef3d
00000010: 924c b83e 6cf0 6dbf 42a2 e73f aa2a b6be
00000020: 0e07 0540 01f2 013f 784b e03e 0cdb 573f
00000030: 0116 5dbf 88b4 51bd cd2b 433f 52be 2ebe
00000040: 090c b23e 24fa 843f 4f2e c43e cc68 423f
00000050: ca11 2d3f c680 bebf 0acb 10be 2324 2cbf
00000060: a35e 86bf 32e0 5e3f 4051 8f3f 8802 263e
00000070: d9a6 2cbf 24dd 6ebf 8aa0 64be ad88 4d3f
00000080: b02f 69bd 1370 6ebe 7a97 83be 59e1 67be
00000090: 40ee 1bbc 68e7 77be 68d5 a1bd 6822 093d
000000a0: 40b0 08bf e742 b23e 92a5 8e3f 0840 8dbf
000000b0: 7529 693e dbb7 63bd 45ca 023f 6f84 48bf
000000c0: 434e b03e 2b06 7cbf 48ab 963f 517a 1140
000000d0: c765 1f3f e477 30bd 393b 2fbe c03f e1bd
000000e0: a391 adbe 57b1 943f aa8a 8ebe 7875 cf3e
000000f0: 8506 ab3f 8920 1140 703e 943d 2fef ed3f
-0.2066358 -0.19783431 0.20612681 0.11703292 0.3599592 -0.9294498 1.8096392 -0.35579425
2.0785556 0.50759894 0.43807578 0.84318614 -0.863617 -0.05119756 0.7623871 -0.17064789
0.34774807 1.0388837 0.3831658 0.7594116 0.6760527 -1.4883049 -0.14139953 -0.6724264
-1.0497631 0.87060845 1.119667 0.16211903 -0.6744209 -0.93306184 -0.22326866 0.80286676
-0.056930244 -0.2328494 -0.25701505 -0.22644557 -0.009517252 -0.24209368 -0.07902032 0.033480078
-0.53393936 0.34816667 1.1144278 -1.1035166 0.22769721 -0.05559526 0.5108989 -0.7832708
0.3443471 -0.9844691 1.1771021 2.2730906 0.62264675 -0.043083087 -0.17112435 -0.109984875
-0.33900174 1.161662 -0.27840167 0.4051931 1.3361365 2.2676108 0.072384715 1.8588618

L2.bias f4 [8]
00000000: eccd 30bf 13cb 29bf 12fa 90bf 24e7 713f
00000010: 9277 02be 987f e33f a00d ec3f 3fc0 913e
-0.6906421 -0.6632549 -1.1326315 0.9449332 -0.12740925 1.7773314 1.8441658 0.28466985

L3.weight f4 [41, 8]
00000000: 4233 dabe e9cb 2d3e 189f e5be 9621 6f3e
00000010: ea0f 3c3e 9ec7 d73e dfd4 e3bf 6485 983e
00000020: 1543 93be ea8e 023f 08b3 3fbf de60 28bf
00000030: 97f9 aa3e 8d51 023f 7d15 46bf 37ac 43be
00000040: 9c60 f7be 032a b6bd 2c4a 913e 7686 ff3e
00000050: d133 8ebe 89b8 a33e 8886 89bf 74c0 87be
00000060: e34e 1fbf 0bae e93e e5c8 973d dfa6 ecbd
00000070: 1c52 993d 4bd0 e33e f121 d8be dbd4 85bf
00000080: 6395 9d3e d004 9c3e 6f4a 96bf 555c 243e
00000090: 3414 893d 8115 b7bd 5e1a aabf 119e b53d
000000a0: 182a 52bf 863d 97be b290 de3e 3375 ca3e
000000b0: f6c1 d8bd f203 8fbd ecdd 90bf e80c 5d3e
000000c0: 09a6 5f3e 5ae0 323e 6d33 afbc 431e 843e
000000d0: d0b8 0e3e 4b0b 01bd f87b b9be 93c6 69bf
000000e0: acc6 14bd 8996 12bc 9243 56be 2d43 a13e
000000f0: e25a 1b3e a887 7cbd 510e 02bf a4e4 49be
00000100: 270a 28bf c349 b4be e2f4 273f 3e72 6fbf
00000110: 21db 6bbe ea9d b5bf 5bd9 3a3e 9be4 1cbc
00000120: 57da 9cbf 4c41 473e f9d1 23bf 784a 95bf
00000130: 5487 053e 6897 2abf 5046 4bbf 194d 3f3f
00000140: a1e8 db3e 2498 8ebf 2ce4 31bf 34ca 27bf
00000150: 6ca0 a5be 2ba4 ee3e e7ff b93d f628 80be
00000160: a0c9 183f 6b2e 59bf 2dfb b8bf b734 053f
00000170: b251 85be 8a3f edbe a6f0 ffbf 491f 0c3f
00000180: 622d 2cbf 76b8 e53e c07e 513f ee2a a1bf
00000190: fa9c a0be 4390 a5bf aaf9 453e 19c6 96bf
000001a0: bd8e 91be 4dc7 b0bf b129 043f f65a 14bf
000001b0: d2ce 653e 86c1 c5bd 8ea3 fb3e 7912 bdbe
000001c0: 0948 61bf 120c 85bf 2f43 d13e 3508 a03e
000001d0: 129b 183e 4cb8 103f 37ed c13d fd6c cbbe
000001e0: b696 59be cd13 67bf 17fc 3bbd afc3 79bf
000001f0: fd76 a03e 3f7b 96bf 266b 9e3e 78a3 be3c
00000200: 0e6d 8ebe 28b2 ffbd 1f79 24be 8cf3 b43d
00000210: f02e a93c c53a 9bbe 1c30 dd3d 3f7e 4ebe
00000220: 9bc0 8bbf 147f d6bb 33d0 1fbf 611a edbe
00000230: 20db 46bd da2f 8ebf f36d f53e e438 1c3e
00000240: bc2b ebbd a4f6 c43e 0782 48be a3fd c9be
00000250: 6a08 233e 61b3 41bf 93b5 a7be bca7 46be
00000260: fd53 80bd 543c df3d 0d59 69bf 0e24 a7be
00000270: a116 aa3e d89d a93e 8ff0 533e a8b3 0bbf
00000280: 90f2 df3d 57ac 2c3f ae6e ccbf 8754 67bf
00000290: 9dfe 8e3e f02f eabf ecb7 653d 8475 9cbe
000002a0: 8744 a1bd fb70 0ebd 3966 9dbc 0b0e b0bf
000002b0: f168 8a3e b13c 2abf 1c0d d33e f46f c1be
000002c0: dae2 ac3e 2bf0 a8be c45d 4bbf 6321 acbe
000002d0: 009c d2bc a2f2 56bf 13c7 87be 36c1 3b3e
000002e0: 5b9c 0e3f 39a6 963e 31fb 4e3d ac4e dbbf
000002f0: 870f 923e 9ba5 ebbd 789e 893d 5f7f bfbf
00000300: 3076 82bd 2d3c c3bf dc79 44be 2c35 e23e
00000310: 13ef 8e3e c7fa e13d e0df 10bf 5181 703e
00000320: b745 dcbf 6ac0 34bf 85cc 7abf 5fb6 d4be
00000330: 84c4 a7bd 11b6 933f 2f90 e93d 123f d23e
00000340: 8f4b 12c0 3345 b9be 0b72 36bf 8fdf 2bbd
00000350: 4830 04bd c7b7 a6bf e124 b83e d370 023f
00000360: 9a95 ecbd 30e2 36be 7f73 a0bf 1e20 f63e
00000370: 40bc 5bbc af0a fe3e 2ab2 b1be 6fee 77be
00000380: 24ab 1ec0 18e0 d7bf ee02 2ac0 e380 9b3f
00000390: 5d7e 28be df05 e23f 7fff 5b3f 4adc cfbf
000003a0: 5c9d d6bf 401f 083e c60c a2bd 5599 813e
000003b0: b857 4bbe 0d7b 79be 96d6 523f d909 51bf
000003c0: 7ee3 7cbe 6eb5 6bbf c81a 1cc0 16b0 bf3e
000003d0: 4d72 ac3e bb27 4dbf 9b73 593e a139 ab3e
000003e0: 3862 d8be 844f ac3e f6f5 72bf 18c6 c73e
000003f0: 1cd6 a23d b5d3 b1bf 93cc 22bf 89d2 993e
-0.42617232 0.16972317 -0.4484794 0.23352656 0.18365446 0.42144483 -1.7799338 0.2978927
-0.28762117 0.5099932 -0.74882555 -0.6577281 0.33393547 0.50905687 -0.7737654 -0.19108663
-0.48315895 -0.08894732 0.283769 0.49907273 -0.27773908 0.31976727 -1.0744181 -0.26514018
-0.62229747 0.45640597 0.074113645 -0.11555266 0.07486364 0.44494852 -0.42213395 -1.0455583
0.30778036 0.30472422 -1.1741465 0.16050847 0.066933066 -0.089396484 -1.3289297 0.088680394
-0.8209548 -0.29539126 0.4346977 0.3954254 -0.1058387 -0.069831744 -1.1317725 0.21586955
0.21840681 0.17468396 -0.021386826 0.25804338 0.13937688 -0.03150491 -0.36227393 -0.91318625
-0.03632228 -0.008947023 -0.20924214 0.31496564 0.15171388 -0.06165281 -0.50803095 -0.19716126
-0.6564049 -0.35212526 0.65608037 -0.93533695 -0.2303281 -1.4188817 0.18246977 -0.009575988
-1.2254132 0.19458503 -0.6399227 -1.1663351 0.13039905 -0.6663728 -0.79404163 0.74727017
0.4295092 -1.114018 -0.6948879 -0.6554291 -0.32348955 0.46609625 0.090820126 -0.2503125
0.59682655 -0.84836453 -1.4451653 0.5203356 -0.2603889 -0.4633754 -1.9995315 0.5473524
-0.6725675 0.44867295 0.8183403 -1.2591226 -0.31369764 -1.293465 0.1933352 -1.1779205
-0.28429213 -1.3810822 0.51626116 -0.57951295 0.22442177 -0.09656052 0.4914822 -0.36928156
-0.8800054 -1.0394309 0.4087157 0.3125626 0.14902905 0.56531215 0.09469073 -0.3973159
-0.21248898 -0.9026459 -0.04589471 -0.97564214 0.3134078 -1.1756362 0.30941123 0.023271307
-0.27817577 -0.124851525 -0.16061829 0.088355154 0.020652264 -0.30318275 0.10800192 -0.20165347
-1.0918154 -0.0065459106 -0.6242706 -0.46309188 -0.048548818 -1.1108353 0.47935447 0.15256077
-0.11482951 0.38469422 -0.19580851 -0.39451322 0.15921178 -0.75664335 -0.32755718 -0.19399923
-0.062660195 0.109001786 -0.91151506 -0.32644695 0.3322039 0.33128238 0.20697235 -0.5457101
0.10934937 0.6745047 -1.5971277 -0.90363353 0.2792863 -1.8295879 0.056083605 -0.30558407
-0.07874399 -0.034775715 -0.019213783 -1.3754286 0.2703319 -0.6649886 0.4122094 -0.37780726
0.33766824 -0.32995734 -0.7943995 -0.33619222 -0.025709152 -0.8396398 -0.2651907 0.18335423
0.5570733 0.29423693 0.050532524 -1.7133384 0.2852747 -0.11506196 0.06719679 -1.4960746
-0.06370199 -1.5252739 -0.1918711 0.44181192 0.27916774 0.1103416 -0.56591606 0.2348683
-1.7208775 -0.706061 -0.9796832 -0.41545388 -0.08191779 1.1539937 0.11404454 0.41063744
-2.2858617 -0.36185607 -0.71267766 -0.04196125 -0.032272607 -1.3024834 0.35965636 0.50953406
-0.11551972 -0.17859721 -1.2535247 0.48071378 -0.0134115815 0.49617526 -0.3470624 -0.24212049
-2.4791956 -1.6865263 -2.6564288 1.2148708 -0.16454454 1.7658042 0.8593673 -1.6239102
-1.6766772 0.13293171 -0.079125926 0.25312296 -0.19857681 -0.24363346 0.8235868 -0.8165565
-0.24696156 -0.92073715 -2.4391346 0.3743903 0.33680955 -0.8013875 0.21235506 0.33442405
-0.42262435 0.33654416 -0.94906557 0.3901832 0.07950994 -1.3892733 -0.63593405 0.30043438

L3.bias f4 [41]
00000000: 7484 723d 0ae3 05be d2fa a53d dd67 47be
00000010: 9b8f 91be a14f 4ebe aaa4 b7bd f9bd 4cbf
00000020: c4c4 913d 3b59 05be 62ee 573e e2cc 703d
00000030: 1e9f 03bf 7f0e 3ebe 0054 99be 553f 9abe
00000040: 088c babe 6f4e d53d 497a 12be 939b e7be
00000050: 5acf ff3e d193 debe 9ac3 debe e8b9 843e
00000060: 8328 a8be 3dab 863f ef10 d7be 88af 753e
00000070: d07b 303f 6335 3f3f d21a 523e 2fbc b73e
00000080: 9593 b5be 0e7f 56bf 538c 33be cb6b 05bf
00000090: 335f e0bd dce9 c33e b371 4cbd e50c 61be
000000a0: e5a6 00bf
0.05920835 -0.1307489 0.08104481 -0.19473214 -0.28429875 -0.20147564 -0.08966954 -0.79977375
0.07117608 -0.1302232 0.2108703 0.05878914 -0.5141467 -0.18560217 -0.299469 -0.30126444
-0.3643496 0.10415351 -0.1430446 -0.4523588 0.49962884 -0.4347215 -0.43508607 0.25923085
-0.32843408 1.0521008 -0.42005107 0.23992741 0.6893892 0.74690837 0.20518044 0.3588576
-0.3546416 -0.8378762 -0.17533998 -0.52117604 -0.10955658 0.38264358 -0.04991312 -0.21977575
-0.5025466
